…
tus":"ok","timestamp":1517645578517,"user_tz":-330,"elapsed":935,"user":{"displayName":"Ankit Kumar","photoUrl":"//lh4.googleusercontent.com/-uWdDTHBXLq4/AAAAAAAAAAI/AAAAAAAAAIE/qFUdT-Uh-yw/s50-c-k-no/photo.jpg","userId":"111084341505779207224"}}},"cell_type":"code","source":["model.summary()"],"execution_count":30,"outputs":[{"output_type":"stream","text":["_________________________________________________________________\n","Layer (type)                 Output Shape              Param #   \n","=================================================================\n","conv2d_4 (Conv2D)            (None, 26, 26, 32)        320       \n","_________________________________________________________________\n","conv2d_5 (Conv2D)            (None, 24, 24, 32)        9248      \n","_________________________________________________________________\n","max_pooling2d_1 (MaxPooling2 (None, 12, 12, 32)        0         \n","_________________________________________________________________\n","dropout_1 (Dropout)          (None, 12, 12, 32)        0         \n","_________________________________________________________________\n","flatten_2 (Flatten)          (None, 4608)              0         \n","_________________________________________________________________\n","dense_2 (Dense)              (None, 128)               589952    \n","_________________________________________________________________\n","dropout_2 (Dropout)          (None, 128)               0         \n","_________________________________________________________________\n","dense_3 (Dense)              (None, 10)                1290      \n","=================================================================\n","Total params: 600,810\n","Trainable params: 600,810\n","Non-trainable params: 0\n","_________________________________________________________________\n"],"name":"stdout"}]},{"metadata":{"id":"h-z-BBRenTGh","colab_type":"code","colab":{"autoexec":{"startup":false,"wait_interval":0}}},"cell_type":"code","source":["model
…
